facesense_posture/models/best_model_select.tflite (tflite, 208132 bytes, 10 tensors)

arith.constant5 f4 [24, 64]
0	0xbee3d125	-0.44495502
1	0x3e361dc9	0.177848
2	0x3d6fa0d3	0.058502983
3	0xbdc068d8	-0.09394997
4	0xbfc8040b	-1.5626234
5	0xbf2b5741	-0.66930014
6	0x3eb77441	0.35830882
7	0xbf8c3ae1	-1.0955468
8	0x3dfb4296	0.1226856
9	0xc0147575	-2.319669
10	0xbd6989a3	-0.057016026
11	0xbe5d4be4	-0.21610981
12	0xbea7d1b1	-0.3277717
13	0x3f10f06f	0.5661687
14	0xbf89bd4e	-1.0760896
15	0xbf23d370	-0.63994503
16	0x3f1aa08d	0.6040123
17	0x3f0e854a	0.5567213
18	0x3daeb884	0.08531287
19	0xbfc71fd9	-1.5556594
20	0xbe5f8e98	-0.21831739
21	0x3f115795	0.56774265
22	0xbe73d20d	-0.23810597
23	0x3f1b2004	0.60595727
24	0xc00ac0d7	-2.16802
25	0xbf6a8b5b	-0.9161889
26	0xbf8dfb5c	-1.1092334
27	0xbe8ec140	-0.27881813
28	0x3e08920e	0.13336965
29	0x3d798622	0.060918935
30	0x3f16baec	0.5887897
31	0xbf51b143	-0.81911105
32	0x3d7ed897	0.062218275
33	0x3f080154	0.53127027
34	0xbf29c6b7	-0.6631884
35	0xbe460276	-0.19336876
36	0xc0655561	-3.583336
37	0xbfe9f3ca	-1.8277524
38	0xbfb95e3c	-1.4481883
39	0xbf1e9cc6	-0.6195797
40	0x3f57ae70	0.84250546
41	0xbcfe69a4	-0.031056233
42	0xc02bbe9c	-2.6835089
43	0xbee468fe	-0.44611353
44	0xbed694c5	-0.41910377
45	0xbf310c99	-0.6915985
46	0x3eeff43d	0.46866027
47	0x3e2fd1c9	0.1716987
48	0x3e7894b0	0.2427547
49	0xbec9507d	-0.3931922
50	0x3e9ddd42	0.3083287
51	0x3ec0e938	0.37677932
52	0xbec30654	-0.38090765
53	0xbf9e84c9	-1.2384273
54	0x3cf507b5	0.029910902
55	0xbd165357	-0.036700573
56	0xbf5b7bc7	-0.85735744
57	0xbe4a2546	-0.19740781
58	0x3e684046	0.22680768
59	0x3b1846b9	0.0023235513
60	0xbecb816f	-0.39747187
61	0xbf46b29a	-0.77616274
62	0xbeffd234	-0.4996506
63	0x3e7f61b1	0.2493961
64	0xbee15a19	-0.44014052
65	0x3c28c064	0.010299776
66	0x3f1fb520	0.6238575
67	0xbf0e088a	-0.5548178
68	0xbf4569f0	-0.7711477
69	0x3df97857	0.12181156
70	0xbe9c9968	-0.3058579
71	0xbef7d82c	-0.48407114
72	0x3e87a729	0.2649472
73	0xbe0c71dc	-0.13715309
74	0xbeedcf43	-0.4644719
75	0xbf04af27	-0.5182976
76	0xbe826ef3	-0.25475273
77	0x3e3dcbc5	0.18534763
78	0xbf635db3	-0.8881485
79	0xbd612c33	-0.054973792
80	0xbdb2be0a	-0.08727653
81	0x3e233854	0.15939456
82	0x3e65b34e	0.2243168
83	0x3d3f2fe2	0.046676524
84	0x3b6792ff	0.003533542
85	0x3e8722bc	0.26393688
86	0x3ead5eb4	0.33861315
87	0x3ec8d9ec	0.3922876
88	0xbf29be0f	-0.6630563
89	0xbdf981c8	-0.12182957
90	0x3e835631	0.25651696
91	0x3efc8489	0.49319866
92	0x3ddabaea	0.10680182
93	0x3b125017	0.002232557
94	0x3ee10f2d	0.4395689
95	0xbd7472b3	-0.0596797
96	0x3f316a76	0.6930307
97	0xbd8af442	-0.0678487
98	0xbc6fa880	-0.014627576
99	0xbd2539e6	-0.04033842
100	0xbef3093f	-0.47467992
101	0x3e987786	0.2977869
102	0xbe77dfd4	-0.24206477
103	0x3de7278f	0.11286842
104	0x3d90bdd8	0.0706746
105	0xbeb4e4bc	-0.3533076
106	0x3ea2ee8f	0.3182263
107	0x3e8faeba	0.28062993
108	0x3ecc242a	0.3987134
109	0x3e5f7eed	0.21825762
110	0x3ee45c8f	0.44601867
111	0xbccdd126	-0.025124144
112	0xbf028fd9	-0.51000744
113	0x3db4528e	0.088048086
114	0xbe5a75a7	-0.21333943
115	0x3e8e051d	0.27738276
116	0x3f2bb9cb	0.6708037
117	0xbec5bf0c	-0.3862232
118	0xbfb35633	-1.4010681
119	0x3e030fea	0.1279904
120	0x3c29b1a6	0.010357296
121	0x3e419cfa	0.18907538
122	0x3eecf3ab	0.46279654
123	0xbe178151	-0.14795424
124	0xbf649134	-0.8928406
125	0x3c481fdf	0.01221463
126	0xbf2c301c	-0.6726091
127	0xbf27a931	-0.6549254
128	0x3f5378c3	0.8260614
129	0xbf012350	-0.5044451
130	0x3f00dece	0.5033997
131	0xbe3a90ef	-0.1821935
132	0xbe81d4d0	-0.25357676
133	0xbffcc275	-1.9746844
134	0x3fa6ae6c	1.3021979
135	0xbe30ed09	-0.17277922
136	0x3d17f6df	0.03710067
137	0xbf06cbe3	-0.52654856
138	0x3f4c15fc	0.79721045
139	0xbf02c791	-0.51085764
140	0xbf8f5d2f	-1.1200312
141	0x3e5f275a	0.21792355
142	0xbf0275da	-0.5096108
143	0x3dc7fae8	0.097646534
144	0x3f49202d	0.7856472
145	0xbf5f509c	-0.87232375
146	0xbfb9d93f	-1.4519423
147	0x3f2da24e	0.6782578
148	0xbf4576e0	-0.77134514
149	0x3c23dd12	0.010001438
150	0xbd429e22	-0.04751409
151	0x3d247ac3	0.040156137
152	0x3ed3c6bd	0.41362563
153	0xbece3348	-0.402735
154	0xbe89303d	-0.26794615
155	0xbf7a4dd8	-0.9777503
156	0x3cf8a752	0.030353222
157	0xbf7d4182	-0.9892808
158	0x3ecb07ae	0.39654297
159	0x3f05de0e	0.52291954
160	0x3f20f2e5	0.6287063
161	0xbe045e01	-0.12926485
162	0xbfa472e6	-1.2847564
163	0x3e75968d	0.23983212
164	0x3e8c62d5	0.27419153
165	0xbf6d5f73	-0.9272377
166	0x3f396a0d	0.72427446
167	0xbeb39932	-0.35077816
168	0xbf8e43ee	-1.111448
169	0xbe14df19	-0.1453823
170	0xbd99169f	-0.07475018
171	0xbed3e54e	-0.41385883
172	0xbe9d0821	-0.30670264
173	0xbfe65ea8	-1.7997637
174	0xbdd6bb00	-0.10484886
175	0x3e86452f	0.26224658
176	0x3e104ab6	0.14091
177	0x3e1bab0c	0.15201968
178	0x3e409992	0.18808582
179	0x3f1d5203	0.61453265
180	0x3e010298	0.12598646
181	0x3ef283c6	0.4736616
182	0x3f2f0dd1	0.6838046
183	0x3f45091d	0.7696703
184	0x3eee65f3	0.46562156
185	0x3ea84374	0.32863963
186	0xbec9dc24	-0.39425766
187	0xbf0b2a98	-0.5436187
188	0xbf3cb556	-0.73714197
189	0xbf0546c5	-0.5206111
190	0x3ea9c8fc	0.3316115
191	0xbf099b4f	-0.5375261
192	0x3f5278a0	0.8221531
193	0xbf8579cd	-1.0427796
194	0xc05fae1d	-3.495002
195	0xbf65944d	-0.89679414
196	0xbf1c3d6e	-0.61031234
197	0xc04b139e	-3.1730723
198	0xbeb5c988	-0.3550532
199	0xbf9feb4a	-1.249368
200	0xbd9ea36a	-0.077460125
201	0xc0a3a316	-5.113658
202	0xbd496195	-0.049165327
203	0xbe916913	-0.28400478
204	0xbf00189c	-0.5003755
205	0xbf016555	-0.50545245
206	0x3e4ecf84	0.20196348
207	0xbe4a9463	-0.19783168
208	0x3d2f4e64	0.04279937
209	0x3e92e899	0.28693083
210	0x3e9ba8ae	0.3040213
211	0x3f1035a5	0.56331855
212	0xbed8e545	-0.4236242
213	0x3c4f2b7e	0.012644647
214	0x3f08a829	0.5338159
215	0xbef2b417	-0.47403023
216	0x3ee4486f	0.44586512
217	0x3d2e685e	0.04258
218	0x3e8e202c	0.2775892
219	0x3d97bfeb	0.07409652
220	0xbe7a8059	-0.24463023
221	0x3f356224	0.70852876
222	0xbf03ae02	-0.5143739
223	0x3edad300	0.42739105
224	0xbe7a914c	-0.24469489
225	0x3e7fba57	0.24973427
226	0xbf913a14	-1.1345849
227	0x3f628d42	0.8849679
228	0xbf55a1b4	-0.83449864
229	0xbf545f62	-0.8295804
230	0x3e326601	0.17421724
231	0xbf01171c	-0.5042589
232	0x3f19cbe8	0.6007676
233	0x3e5070c2	0.20355514
234	0x3d5f2501	0.05447865
235	0x3f3e48e1	0.74329954
236	0xbf9b5ebd	-1.2138287
237	0xbf324a09	-0.6964422
238	0x3f1be3a3	0.6089422
239	0x3f747e92	0.9550563
240	0xbd6c2eea	-0.05766193
241	0xbfdec395	-1.7403437
242	0x3e91368f	0.28361937
243	0x3f4c4070	0.79785824
244	0xc0143c55	-2.3161824
245	0xbe919818	-0.2843635
246	0x3e85f9d1	0.26167157
247	0xbd836171	-0.0641507
248	0xc005d9a2	-2.0914083
249	0x3f0d022b	0.55081433
250	0xbd29a9b5	-0.04142161
251	0x3f011bda	0.50433123
252	0x3ed1676e	0.40899223
253	0xbed4fc1c	-0.41598594
254	0xbe49c1fb	-0.19702904
255	0xbe15e65f	-0.14638661

arith.constant6 f4 [64, 64]
0	0x3f303d13	0.6884319
1	0xbdc3bd22	-0.095575586
2	0x3eed42f7	0.46340153
3	0xbde5e4b1	-0.1122526
4	0xbedc2839	-0.42999437
5	0x3e125cfc	0.14293283
6	0x3e563a6d	0.20920725
7	0xbea491ca	-0.32142478
8	0x3d4c7d1b	0.049923997
9	0x3ed9f2ec	0.42568147
10	0xbf673dbe	-0.90328586
11	0x3fab83bf	1.3399581
12	0x3d1a0a13	0.037607264
13	0x3ed1838f	0.40920684
14	0xbee1198f	-0.43964812
15	0xbf0f1988	-0.5589833
16	0xbe1e1124	-0.15436226
17	0x3e6c80af	0.23095964
18	0xbe611fad	-0.2198474
19	0x3f1622b6	0.58646715
20	0x3e9928fd	0.29914084
21	0x3f593f17	0.8486189
22	0xbef09954	-0.4699198
23	0x3c15a256	0.009132942
24	0x3e8e231f	0.2776117
25	0xbe1b1f41	-0.15148641
26	0x3f230f10	0.6369486
27	0xbf514c10	-0.8175669
28	0x3e8048da	0.2505558
29	0x3f0f21b7	0.5591082
30	0xbeff9e38	-0.499254
31	0x3d56f5ac	0.052480385
32	0x3da23e75	0.07922069
33	0x3f214fb4	0.6301224
34	0x3e6486c3	0.22317033
35	0xbe2e47eb	-0.17019622
36	0x3e3e5c91	0.18589999
37	0x3f66eb6b	0.9020297
38	0x3eaa0bfb	0.33212265
39	0x3f011956	0.50429285
40	0xbe28890c	-0.16458529
41	0x3f433031	0.7624541
42	0xbf0e3b88	-0.5555959
43	0xbec477bc	-0.383726
44	0xbf0f60f5	-0.5600732
45	0xbe3d568d	-0.18490048
46	0xbdb3001a	-0.08740254
47	0xbed860f3	-0.42261466
48	0xbefb5d4d	-0.4909462
49	0xbe7da76c	-0.24770898
50	0x3d94e010	0.07269299
51	0x3e3cbff2	0.18432596
52	0x3f4ff770	0.81236935
53	0x3df0025b	0.11719199
54	0x3f0192cd	0.50614625
55	0xbf000a72	-0.5001594
56	0x3e28986a	0.16464391
57	0xbe3ac794	-0.18240196
58	0x3f28cfdc	0.6594217
59	0x3f13e219	0.5776687
60	0x3e8239f6	0.25434846
61	0x3e92726f	0.2860293
62	0x3e4d188f	0.200289
63	0xbe0ebb40	-0.13938618
64	0xbeb7ff8c	-0.35937154
65	0xbf247aa9	-0.64249665
66	0x3e4bfe8b	0.19921319
67	0x3f17c00f	0.59277433
68	0xbec0e900	-0.37677765
69	0x3e1be3db	0.15223639
70	0xbe2537e8	-0.16134608
71	0xbf11c8a8	-0.569468
72	0x3ec4956f	0.3839526
73	0xbebcf508	-0.36905694
74	0xbe1ddaa3	-0.15415435
75	0x3f39aa3e	0.72525394
76	0xbd93f1d7	-0.07223862
77	0x3f3f4778	0.7471843
78	0xbf88e5a1	-1.0695077
79	0xbf70744d	-0.9392746
80	0xbf1cd85c	-0.6126764
81	0xbd7d46af	-0.061834987
82	0x3e69ce70	0.22832656
83	0xbf3efd29	-0.7460504
84	0x3f10e72f	0.5660276
85	0x3d4e868f	0.050421294
86	0x3f0df7d2	0.5545627
87	0xbb5ef89f	-0.0034022701
88	0x3d22d88e	0.039757304
89	0x3ed48296	0.4150588
90	0xbe8903e9	-0.26760796
91	0x3e597eb4	0.2123974
92	0xbd94875c	-0.0725238
93	0xbe23de00	-0.16002655
94	0xbd006b08	-0.031352073
95	0x3dc22d91	0.09481347
96	0xbef726e1	-0.4827185
97	0xbeef1eae	-0.46703094
98	0xbe9aa629	-0.30204895
99	0xbea77934	-0.32709658
100	0x3f7db771	0.99108034
101	0x3e282af4	0.16422635
102	0x3f4141f9	0.7549129
103	0xbe97c9bc	-0.296461
104	0xbe0bf421	-0.13667347
105	0x3f4692dd	0.77567846
106	0x3e5a9b2e	0.21348259
107	0x3e853b68	0.26021886
108	0x3e681a5a	0.22666302
109	0xbd6aad0e	-0.057293944
110	0x3f04d3bc	0.5188558
111	0xbeed6070	-0.46362638
112	0xbe848b20	-0.25887394
113	0x3ed39c21	0.41330054
114	0xbe203a1b	-0.15647165
115	0xbf2922eb	-0.66068906
116	0x3f6ecceb	0.9328143
117	0x3e8825b5	0.26591268
118	0xbf8c5e42	-1.0966265
119	0xbf42d331	-0.761035
120	0x3f22bf5e	0.63573253
121	0xbec72e5c	-0.38902557
122	0xbe51fc74	-0.2050646
123	0xbed25aea	-0.41084987
124	0x3f24a64b	0.6431624
125	0xbe481637	-0.19539724
126	0xbefacd67	-0.48984835
127	0x3d52d75d	0.051474918
128	0x3f4760e0	0.77882195
129	0x3f437274	0.76346517
130	0xbf83edd5	-1.0306956
131	0x3f1d561c	0.6145952
132	0x3e52e9a2	0.20596936
133	0xbd39de4f	-0.045378026
134	0x3dd21148	0.102572024
135	0x3e9a542b	0.3014234
136	0xbeb6b950	-0.35688257
137	0xbe840769	-0.25786904
138	0xbe9c7696	-0.30559224
139	0xbe4365f8	-0.19081867
140	0x3e8f9c55	0.2804896
141	0x3e239867	0.15976106
142	0xbeda9e2d	-0.42698804
143	0xbda32732	-0.0796646
144	0xbf5cc366	-0.86235654
145	0xbf2781a4	-0.6543219
146	0x3e8dfd37	0.2773225
147	0xbf48147e	-0.7815627
148	0xbed77201	-0.42079166
149	0x3dd981ef	0.10620486
150	0xbf157922	-0.5838796
151	0xbe741af1	-0.23838402
152	0x3ec24c80	0.3794899
153	0xbe1b2d44	-0.15153986
154	0xbf1ff01d	-0.6247576
155	0xbeaabcee	-0.33347267
156	0xbe8624f0	-0.26200056
157	0x3ec63c24	0.3871776
158	0x3e7fae90	0.24968934
159	0x3e1fb7c1	0.1559744
160	0x3f3c186c	0.73474765
161	0x3d5999eb	0.053125303
162	0x3eab5fc0	0.3347149
163	0x3f11a208	0.56887865
164	0xbe1b9fa1	-0.15197612
165	0xbded7502	-0.11594583
166	0x3f2930c9	0.66090065
167	0x3e033f00	0.12817001
168	0x3e89c889	0.2691081
169	0xbd977507	-0.07395368
170	0xbe340ea8	-0.17583716
171	0x3eae10d8	0.33997226
172	0x3eecd4fd	0.46256247
173	0x3bcb7763	0.0062093004
174	0x3ecfdd68	0.40598607
175	0x3e78b4e6	0.24287757
176	0x3f1ed825	0.6204856
177	0x3f54089d	0.8282564
178	0xbebf46fd	-0.37358847
179	0xbea5709f	-0.32312486
180	0xbea0e1f2	-0.31422383
181	0x3f295292	0.6614162
182	0x3f4a4437	0.7901034
183	0xbd1b6601	-0.037939075
184	0x3f1e9318	0.619432
185	0x3f7de73e	0.9918097
186	0xbdc93136	-0.09823839
187	0xbf3d8198	-0.7402587
188	0x3e60105d	0.21881242
189	0x3f310e52	0.69162476
190	0xbf1387de	-0.5762919
191	0x3f57c915	0.842912
192	0x3f41ae75	0.75656825
193	0xbeee3275	-0.4652287
194	0xbbebd339	-0.0071968106
195	0xbe321064	-0.17389065
196	0x3f4856cf	0.7825746
197	0xbe048af1	-0.12943627
198	0xbee7ceaf	-0.45274875
199	0xbd7eaa42	-0.06217409
200	0xbf287465	-0.65802604
201	0xbebcf253	-0.3690363
202	0x3e7f2080	0.24914742
203	0xbd905181	-0.07046796
204	0x3f080814	0.53137326
205	0x3f6cf9c7	0.9256863
206	0x3c88ae50	0.016684681
207	0x3faffee9	1.3749667
208	0xbf09bf22	-0.5380727
209	0x3ea35689	0.3190196
210	0x3d736174	0.05941911
211	0xbdeb9328	-0.11502677
212	0x3ee816ec	0.45329988
213	0xbe95ed5c	-0.29282653
214	0xbeeed9ea	-0.4665063
215	0x3d3ce054	0.046112373
216	0x3f711806	0.9417728
217	0x3edc3907	0.43012258
218	0x3e5f3faf	0.21801637
219	0x3dec81c1	0.11548186
220	0x3d4fd1ce	0.050737195
221	0x3e6f5209	0.23371138
222	0xbf1f56e7	-0.6224198
223	0x3f080083	0.5312578
224	0x3e60d7ad	0.21957274
225	0x3f196b4a	0.59929335
226	0x3e55b9d4	0.20871669
227	0x3eebf2a8	0.4608357
228	0xbe1d8f8b	-0.15386789
229	0xbebe5d54	-0.3718058
230	0x3e600654	0.21877414
231	0xbf130d15	-0.57441837
232	0x3da52ec7	0.08065563
233	0x3f5d7781	0.86510473
234	0xbea3cbbe	-0.3199138
235	0xbf5fee5b	-0.87473077
236	0xbf563f9f	-0.8369083
237	0xbd96e420	-0.0736773
238	0x3e032bf5	0.12809737
239	0xbe13db61	-0.14439155
240	0x3ebb8676	0.36626023
241	0x3f1b316c	0.60622287
242	0x3e511055	0.20416386
243	0xbe517fef	-0.20458959
244	0xbec00106	-0.3750078
245	0xbd9c2e86	-0.07626061
246	0xbd22c53c	-0.03973888
247	0xbdc869aa	-0.09785779
248	0xbe3d4464	-0.1848312
249	0x3dd8fc95	0.10595051
250	0x3d2195c8	0.039449483
251	0xbd866e28	-0.065639794
252	0x3fe39078	1.7778463
253	0xbeb66c94	-0.35629714
254	0xbe177a96	-0.14792857
255	0x3e98778c	0.29778707

arith.constant7 f4 [256, 99]
0	0xbe35a648	-0.17739213
1	0xbd1219d7	-0.035669174
2	0xbec33f08	-0.38134027
3	0x3b08c5dd	0.0020869889
4	0x3cd1b6c7	0.02559985
5	0xbe165220	-0.14679766
6	0xbdace895	-0.08442799
7	0xbc472752	-0.012155371
8	0xbe939e55	-0.28831735
9	0xbe1a3fc9	-0.15063395
10	0x3df9b381	0.12192441
11	0xbe515b4a	-0.2044498
12	0xbe0898cc	-0.13339537
13	0x3d51945d	0.05116688
14	0xbea12686	-0.31474704
15	0xbdced023	-0.10098293
16	0x3de5ff81	0.11230374
17	0xbec0ce24	-0.37657273
18	0xbde9b5d5	-0.11411635
19	0x3c85b96b	0.016323766
20	0xbe9e8b72	-0.30965763
21	0xbc99a0de	-0.018753465
22	0x3e24ee21	0.16106464
23	0xbeacef43	-0.33776292
24	0xbdc1892d	-0.09449992
25	0x3e284d52	0.16435745
26	0xbe82664a	-0.25468665
27	0xbcc1dd40	-0.02366507
28	0x3ad55635	0.0016276302
29	0xbebbc499	-0.3667343
30	0xbdf08c01	-0.117454536
31	0x3da3cb97	0.07997816
32	0xbe45aa93	-0.1930335
33	0x3e38b38e	0.18037245
34	0x3e217f5c	0.1577124
35	0x39ed8a56	0.0004530723
36	0xbcdf6608	-0.027270332
37	0xbd4c9bfc	-0.049953446
38	0xbf3938df	-0.72352403
39	0x3f1a9be3	0.60394114
40	0xbe5a75b6	-0.21333966
41	0x3d6c166e	0.057638578
42	0xbe968723	-0.29399976
43	0x3ec53a5b	0.38521084
44	0xbf59a35f	-0.8501491
45	0x3f6facb6	0.9362291
46	0x3eff5004	0.49865735
47	0xbc2d7753	-0.010587531
48	0x3e11a3c5	0.1422263
49	0xbe3b6967	-0.18301927
50	0xbf1c235b	-0.6099145
51	0x3f6a6509	0.9156042
52	0x3f294147	0.6611523
53	0xbe12a920	-0.14322329
54	0xbd0a7036	-0.03379842
55	0xbebf8bc4	-0.3741132
56	0xbebd429a	-0.36964875
57	0x3f43eca8	0.76532984
58	0x3f02cf94	0.5109799
59	0xbe2ae0de	-0.16687343
60	0xbe08c410	-0.13356042
61	0xbebf4715	-0.3735892
62	0xbef2b514	-0.47403777
63	0x3f221683	0.633156
64	0x3e8d38d1	0.2758241
65	0xbc912ade	-0.017720636
66	0x3d522c53	0.051311802
67	0xbe7d9b66	-0.24766311
68	0xbef50c3a	-0.4786089
69	0x3ea076af	0.31340548
70	0xbf58aaa6	-0.8463539
71	0x3fd32730	1.6496334
72	0xbe9aca9c	-0.30232704
73	0x3f3cbadf	0.7372264
74	0xbfb5cd68	-1.420331
75	0x3f5cb28d	0.86209947
76	0x3dc3b902	0.09556772
77	0xbeea3d9a	-0.45750123
78	0x3ec47a9c	0.38374794
79	0x3e3ee9d2	0.18643883
80	0xbf9b376f	-1.2126292
81	0x3f29dd22	0.66353047
82	0x3dba75af	0.091044776
83	0xbeb8e4f7	-0.36112186
84	0x3dcac080	0.09899998
85	0x3e9a7d22	0.30173594
86	0xbf7ac61c	-0.9795854
87	0x3f432e4f	0.76242536
88	0x3ea9d180	0.33167648
89	0xbe3f3075	-0.18670829
90	0x3da13141	0.078707226
91	0x3eecbfe3	0.46240148
92	0xbf6b0583	-0.91805285
93	0x3f527cd2	0.8222171
94	0x3e255edc	0.16149467
95	0xbe552d01	-0.20817949
96	0x3d1c2215	0.03811844
97	0x3ec5584d	0.3854393
98	0xbfca5a59	-1.5808822
99	0x3eb57472	0.35440403
100	0x3de2876f	0.11060988
101	0x3ead9187	0.3390009
102	0x3d972fad	0.0738214
103	0x3dcf894b	0.101336084
104	0x3e6f7e3a	0.23387995
105	0x3e2cc796	0.16873011
106	0x3c9b9486	0.01899172
107	0x3e9ad5c9	0.3024123
108	0x3e0aa7bb	0.13540547
109	0x3db4d106	0.088289306
110	0x3e683c87	0.2267934
111	0x3e7e2412	0.24818447
112	0xbc75a20b	-0.014992247
113	0x3e2f5364	0.17121655
114	0x3de5dd26	0.11223821
115	0xbcf7af44	-0.03023494
116	0x3ea31ddb	0.31858715
117	0x3e7edeb5	0.24889643
118	0xbd9cf1b9	-0.076632924
119	0x3e08e1ef	0.13367437
120	0x3cefe49f	0.02928382
121	0x3d9b4ed0	0.07583392
122	0x3ec45cbf	0.3835201
123	0x3e1b55a7	0.15169393
124	0x3d1aa884	0.037758365
125	0xbdbd12ae	-0.092320785
126	0x3e1da555	0.153951
127	0xbd3bf937	-0.045891967
128	0x3e675f72	0.22595003
129	0x3d8383e2	0.06421639
130	0x3df20189	0.11816699
131	0x3e284786	0.16433534
132	0x3d96f07c	0.073700875
133	0xbda6536e	-0.08121382
134	0x3ef5b505	0.4798967
135	0xbdc08172	-0.0939969
136	0x3d6238a2	0.05522979
137	0xbed2c085	-0.41162506
138	0xbcea4dc1	-0.02860153
139	0xbe894896	-0.2681319
140	0x3effc595	0.4995543
141	0xbf0397a7	-0.5140328
142	0xbe3570f4	-0.1771887
143	0xbe2fcac2	-0.1716719
144	0x3ead64f3	0.3386608
145	0x3ebdaf4b	0.370478
146	0x3eaff9fe	0.34370416
147	0xbee10136	-0.43946236
148	0xbd5af103	-0.053452503
149	0x3e49eb8c	0.1971876
150	0x3ef07b35	0.46969
151	0x3efd9449	0.49527195
152	0x3e20ecd0	0.15715337
153	0xbee27adb	-0.44234356
154	0x3db49f60	0.08819461
155	0x3e9957b7	0.29949734
156	0x3eca1c1a	0.39474565
157	0x3f02110e	0.50807273
158	0x3d73daae	0.05953472
159	0xbe8bb337	-0.27285168
160	0x3e261539	0.16219033
161	0x3e4de11a	0.201054
162	0x3ec5a1b6	0.38599938
163	0x3f01083a	0.5040318
164	0x3d8de748	0.06928879
165	0xbebeefea	-0.37292415
166	0x3e651084	0.22369581
167	0x3e09241d	0.13392682
168	0x3eaf7358	0.34267688
169	0xbf8ef5f3	-1.1168808
170	0x3eb82343	0.35964403
171	0xbed3767d	-0.41301337
172	0x3fa900ca	1.3203366
173	0xbee7adfc	-0.45249927
174	0xbd98158e	-0.07425986
175	0x3f1a5943	0.6029245
176	0xbebfe2d2	-0.37477738
177	0xbf4e6e63	-0.80637187
178	0x3e9a4851	0.30133298
179	0xbf342d79	-0.70381886
180	0x3ebe9963	0.372264
181	0xbdf76f71	-0.12081803
182	0xbd53d03d	-0.051712263
183	0xbea85a91	-0.32881597
184	0x3df80858	0.121109664
185	0xbe9a66bc	-0.30156505
186	0x3eb5ca94	0.35506117
187	0xbaadfe23	-0.0013274591
188	0x3de976e9	0.113996334
189	0xbe46302f	-0.19354318
190	0x3d7831ea	0.060594477
191	0xbe862d62	-0.262065
192	0x3e9de159	0.3083599
193	0x3dd48871	0.10377587
194	0xbb82b24b	-0.0039885393
195	0x3d51d129	0.05122486
196	0x3edbe8b4	0.42950976
197	0xbeb5c8a8	-0.3550465
198	0xbea259d4	-0.31709158
199	0x3edf81ec	0.4365381
200	0xbd51a0fa	-0.05117891
201	0xbead9842	-0.33905226
202	0x3ebab578	0.36466575
203	0xbe19689b	-0.1498131
204	0xbe39605c	-0.18103164
205	0x3e720708	0.23635495
206	0xbe3acbe3	-0.18241839
207	0xbd67183b	-0.056419592
208	0x3e9f5140	0.31116676
209	0xbe1a2ca0	-0.15056086
210	0xbe779fb8	-0.24182022
211	0x3ed47cfa	0.415016
212	0xbe8a87e8	-0.27056813
213	0xbe0b768a	-0.13619438
214	0x3ecf4038	0.40478683
215	0xbe8df763	-0.27727804
216	0x3d7d6b00	0.06186962
217	0x3ea53fea	0.32275325
218	0xbde89888	-0.11357218
219	0xbc17980c	-0.009252559
220	0x3e160f30	0.14654231
221	0xbe4d5150	-0.2005055
222	0x3de56f76	0.112029
223	0x3ea3d969	0.32001808
224	0xbeafd2f9	-0.34340647
225	0xbe9daa77	-0.30794117
226	0x3edb0e42	0.42784315
227	0xbd882682	-0.0664797
228	0xbe31698a	-0.17325416
229	0x3e93ba64	0.28853142
230	0xbe0831bc	-0.13300222
231	0x3ef85fa4	0.48510468
232	0xbe3c1eb0	-0.18371081
233	0xbf019e45	-0.50632125
234	0x3df5c4e3	0.12000444
235	0x3d29f12b	0.04148976
236	0xbe6e7ddd	-0.232902
237	0x3f096abf	0.53678507
238	0x3e63e37d	0.22254749
239	0xbeff05fc	-0.49809253
240	0xbebb6dfa	-0.36607343
241	0xbe133e42	-0.14379218
242	0xbe0ae646	-0.13564405
243	0x3dfe40c3	0.12414696
244	0x3f1520e7	0.5825333
245	0xbdb79b16	-0.08965127
246	0xbed03438	-0.4066484
247	0xbe7208bb	-0.23636143
248	0xbcbd2a41	-0.023091437
249	0x3f0bd04d	0.54614717
250	0x3e08d4e7	0.13362466
251	0xbe615186	-0.22003755
252	0xbec89a9a	-0.39180452
253	0xbe021f69	-0.12707295
254	0xbdd8ee79	-0.1059236
255	0x3f1349c4	0.5753443

arith.constant8 f4 [256, 64]
0	0xbe1ef98f	-0.15524887
1	0x3ea32fdf	0.3187246
2	0xbe1ab131	-0.15106656
3	0xbea26fe2	-0.31725985
4	0xbef248c7	-0.4732115
5	0x3f108c1e	0.564638
6	0x3d38b348	0.04509285
7	0x3f85e876	1.0461566
8	0xbf2dcea1	-0.67893416
9	0xbe49e008	-0.19714367
10	0xbf50d0c3	-0.81568545
11	0xbf788551	-0.97078425
12	0xbf7e29e8	-0.99282694
13	0xbeb50eab	-0.35362753
14	0x3f10adcd	0.565152
15	0xbef732e6	-0.4828102
16	0x3ef935cc	0.48673856
17	0x3e11148f	0.14167999
18	0x3ef2d824	0.47430527
19	0x3f7609a4	0.9610846
20	0xbea43176	-0.32068986
21	0x3f004433	0.50104064
22	0xbee652c6	-0.44985026
23	0xbe9540d2	-0.29151016
24	0x3e66f00d	0.2255251
25	0x3badf32c	0.0053085294
26	0x3e2f3d6d	0.17113276
27	0xbea2ef77	-0.31823322
28	0xbf015c25	-0.50531226
29	0x3e7546c4	0.23952776
30	0xbe156c13	-0.14592008
31	0xbec8bab4	-0.39204943
32	0xbf1d2144	-0.61378884
33	0xbe83c9b7	-0.25739834
34	0xbf033912	-0.5125896
35	0xbf4a9380	-0.7913132
36	0xbf0abd1c	-0.5419481
37	0xbe7adce3	-0.24498324
38	0xbf161df2	-0.5863944
39	0x3d1aab7a	0.03776119
40	0xbcc25cf9	-0.023725973
41	0x3dacc128	0.08435279
42	0x3f00589a	0.50135195
43	0xbf27bb72	-0.65520394
44	0xbd91e6e5	-0.07124118
45	0xbafb8660	-0.0019189827
46	0x3cc41235	0.023934463
47	0x3ebde4cd	0.37088624
48	0xbe7d4152	-0.24731949
49	0x3f0459c1	0.51699454
50	0x3f303649	0.6883283
51	0x3f954130	1.1660519
52	0xbefc5990	-0.4928708
53	0xbe4f199d	-0.20224614
54	0xbf598aec	-0.849776
55	0xbf31bda9	-0.69430023
56	0x3ee8924f	0.45424125
57	0x3e871f42	0.26391035
58	0xbf0fee25	-0.56222755
59	0xbeaad20d	-0.3336338
60	0x3f718eaa	0.94358313
61	0xbd4672cd	-0.048449326
62	0x3e58f3fc	0.21186823
63	0x3edeabb5	0.43490377
64	0x3d62651e	0.055272214
65	0xbddfece2	-0.10933854
66	0xbeb8f492	-0.36124092
67	0x3e6d5bd8	0.23179567
68	0x3d0ad752	0.03389675
69	0x3cf211e6	0.02954955
70	0xbdba0b75	-0.090842165
71	0xbf595922	-0.8490163
72	0xbea20bff	-0.31649777
73	0xbf937ae5	-1.152188
74	0xbf548c67	-0.83026737
75	0xbee3d451	-0.44497922
76	0x3e532eea	0.20623365
77	0xbe69d6d7	-0.22835861
78	0x3f02bdea	0.51071036
79	0xbdfbf15b	-0.12301894
80	0xbeb39353	-0.35073337
81	0x3eb2895f	0.3487043
82	0x3edaf781	0.42766955
83	0xbea4cb00	-0.32186127
84	0xbec81caf	-0.39084384
85	0x3e12f94e	0.14352915
86	0x3dc5078e	0.096205816
87	0xbf17cd7a	-0.5929791
88	0xbf6e9a53	-0.9320423
89	0x3f9139a1	1.1345712
90	0x3c9e03c2	0.019288901
91	0x3f259d72	0.6469337
92	0xbf106968	-0.5641084
93	0xbdcaa571	-0.09894837
94	0x3e96401a	0.2934578
95	0xbf3efba4	-0.74602723
96	0x3f46da67	0.77677006
97	0x3f360bf5	0.71111995
98	0x3d216187	0.03939965
99	0xbda60572	-0.08106507
100	0xbe1b3fc5	-0.15161045
101	0xbe1124ac	-0.14174145
102	0x3ecb9c19	0.3976753
103	0xbfa61e68	-1.2978029
104	0x3f803c6f	1.0018443
105	0xbf148d7c	-0.5802839
106	0xbf692641	-0.91073996
107	0xbd48e54f	-0.04904681
108	0x3e53585d	0.20639177
109	0x3f80f3b2	1.007437
110	0x3f0c98da	0.5492073
111	0x3f89a39d	1.0753056
112	0x3eb853e7	0.36001512
113	0xbf8492ac	-1.0357261
114	0xbe949f4a	-0.29027778
115	0x3ed67d0b	0.41892275
116	0x3c4bf249	0.012447902
117	0xbe49d4d0	-0.19710088
118	0x3e01104f	0.12603877
119	0xbe6d31f7	-0.23163591
120	0x3e3693a5	0.1782976
121	0xbef0937c	-0.46987522
122	0xbdc9f930	-0.09861982
123	0xbef8b7af	-0.4857764
124	0xbdfe6aca	-0.12422712
125	0x3ee87d5b	0.4540814
126	0xbda42932	-0.0801567
127	0xbf272b62	-0.6530057
128	0xbe531c4f	-0.20616268
129	0xbeae1a02	-0.34004217
130	0x3f4a7186	0.79079473
131	0xbef9decb	-0.4880279
132	0xbf3dc780	-0.7413254
133	0xbe8cc848	-0.27496552
134	0x3f093925	0.5360282
135	0xbe6d90f6	-0.2319983
136	0xbf3c95fc	-0.7366636
137	0xba8087b0	-0.0009806063
138	0x3ce4a84f	0.027912287
139	0xbeba7571	-0.36417726
140	0x3fd885c9	1.6915828
141	0x3f75273c	0.9576299
142	0xbf2cfe17	-0.6757521
143	0x3f9832bb	1.1890482
144	0xbec8fedd	-0.39256945
145	0x3ea4dba5	0.32198825
146	0xbee37c7f	-0.4443092
147	0x3f1679b5	0.5877946
148	0xbd5ea468	-0.05435601
149	0xbf238c83	-0.6388628
150	0xbe197536	-0.14986119
151	0x3f0e52a2	0.5559484
152	0xbd1fc8ce	-0.03900986
153	0x3e76a648	0.24086869
154	0x3f27b0bd	0.65504056
155	0xbf8eeb80	-1.1165619
156	0x3dc59946	0.09648375
157	0x3e9bf6a2	0.30461603
158	0x3d8cc627	0.06873732
159	0xbf58da96	-0.84708536
160	0xbe4f9dbb	-0.20275013
161	0xbd4fb3b2	-0.05070848
162	0xbc1b5f4f	-0.009483173
163	0xbfeaefaf	-1.8354396
164	0x3d67a06d	0.05654948
165	0x3f22d254	0.63602185
166	0x3cc57a06	0.024106037
167	0xbf0be2e6	-0.54643095
168	0xbed06e73	-0.40709266
169	0xbee6826d	-0.45021382
170	0x3e7b4800	0.24539185
171	0xbd603e3a	-0.054746844
172	0x3e8273d4	0.25478995
173	0xbe80fae1	-0.25191405
174	0x3d9ed50b	0.077554785
175	0x3ee3d599	0.444989
176	0x3f590042	0.8476602
177	0x3f0333c2	0.5125085
178	0xbe847965	-0.25873867
179	0xbe63a5ef	-0.22231267
180	0xbd6082a0	-0.054812074
181	0xbeca2673	-0.3948246
182	0xbf349630	-0.7054167
183	0xbdfa03ae	-0.12207733
184	0xbf615333	-0.88017577
185	0x3f8ee6d9	1.1164199
186	0xbded386a	-0.11583026
187	0xbec4fb0b	-0.3847278
188	0x3f07d709	0.5306249
189	0x3eaf94d7	0.34293243
190	0x3f2587b3	0.64660186
191	0x3ea79846	0.32733363
192	0x3eac9944	0.33710682
193	0x3f0fe71f	0.5621204
194	0x3eefa656	0.46806592
195	0x3f314121	0.69240004
196	0xbedffee0	-0.43749142
197	0xbee7b308	-0.45253778
198	0x3f5a6040	0.85303116
199	0x3f459667	0.7718262
200	0x3e968127	0.2939541
201	0xbdf68d83	-0.1203871
202	0x3ecbc5bc	0.39799297
203	0xbf11a58d	-0.56893235
204	0xbe369d5b	-0.17833464
205	0xbf02a448	-0.51031923
206	0x3f9c2e16	1.2201564
207	0x3e860837	0.26178142
208	0x3f87b052	1.0600684
209	0x3d1fecb9	0.039044116
210	0xbecab958	-0.3959453
211	0x3f3f7a67	0.74796146
212	0x3ea80ee7	0.3282387
213	0xbe1f983d	-0.15585418
214	0x3e968dfe	0.29405206
215	0xbf2e961f	-0.68197817
216	0x3f942255	1.1572977
217	0x3f723373	0.94609755
218	0x3f9cc6be	1.2248151
219	0xbf8857c0	-1.0651779
220	0xbdebe8b4	-0.11518994
221	0xbda48d3c	-0.08034751
222	0x3eee55d1	0.46549848
223	0xbefde292	-0.49586922
224	0x3cbbaede	0.022910532
225	0x3eb7e8a0	0.35919666
226	0xbe2d3101	-0.16913225
227	0xbebe9d36	-0.37229317
228	0x3edb218d	0.42799035
229	0xbf3aa687	-0.7291035
230	0x3ee50d59	0.44736746
231	0x3ebbc6ab	0.3667501
232	0x3de64d01	0.11245156
233	0x3e98ebaa	0.29867297
234	0xbf104678	-0.56357527
235	0x3e0639fc	0.13108057
236	0xbd9f5c45	-0.07781271
237	0xbe59575b	-0.2122473
238	0x3f34feec	0.7070148
239	0xbf91bacb	-1.138513
240	0x3e56cd49	0.20976748
241	0xbdf8ac81	-0.121422775
242	0xbea5fd94	-0.32420027
243	0x3ef3c6aa	0.47612506
244	0x3de0e779	0.1098165
245	0xbf1b6209	-0.60696465
246	0x3e1f8759	0.15578975
247	0x3e3fcda8	0.18730795
248	0xbf4c5a16	-0.7982496
249	0xbf80638e	-1.0030382
250	0xbebe47e7	-0.37164232
251	0xbf153c48	-0.58295107
252	0xbf370596	-0.714929
253	0xbf880fac	-1.0629783
254	0xbe20dfe4	-0.15710407
255	0xbedc63c4	-0.43044865

arith.constant9 f4 [256]
0	0xbe4d1991	-0.20029284
1	0x3eb5ad6b	0.3548387
2	0x3eb11207	0.34584066
3	0x3e377a67	0.17917787
4	0x3dde8725	0.108656205
5	0x3e63b666	0.22237548
6	0x3dff0a40	0.12453127
7	0xbe301c9b	-0.17198412
8	0xbd6f9d6f	-0.05849975
9	0x3d7adb93	0.06124456
10	0xbb383391	-0.0028106908
11	0x3eaee9ab	0.3416265
12	0xbe0672ed	-0.13129778
13	0x3db96ba3	0.09053733
14	0x3e3a13c3	0.18171601
15	0x3ed51680	0.4161873
16	0x3ab20c4e	0.0013583989
17	0x3db4939a	0.08817215
18	0x3f1b7556	0.60725915
19	0xbc62f892	-0.013853209
20	0x3e4857d6	0.19564757
21	0x3e132426	0.14369258
22	0x3def275c	0.11677429
23	0xbe8a9542	-0.27067
24	0x3dac52ca	0.08414228
25	0xbe2abc27	-0.16673337
26	0x3ed946b9	0.4243677
27	0x3f0c8ade	0.54899395
28	0x3f430259	0.7617546
29	0x3dcae1b3	0.0990633
30	0x3efcad57	0.49350998
31	0x3ec8d53e	0.3922519
32	0x3ec9d9ab	0.3942388
33	0x3e968143	0.29395494
34	0xbe497663	-0.19674067
35	0xbe48c582	-0.19606593
36	0xbe4296dc	-0.19002861
37	0x3ec2e3eb	0.38064513
38	0xbeb32f13	-0.34996852
39	0x3f23f865	0.64050895
40	0x3eee8cbc	0.46591747
41	0x3d041f9a	0.0322567
42	0x3e15b6ba	0.14620486
43	0x3daff60c	0.085918516
44	0xbdfdd978	-0.123949945
45	0x3e229259	0.1587614
46	0xbe0b732f	-0.13618158
47	0x3ec1d0bf	0.37854573
48	0x3e0df3cd	0.13862534
49	0xbe34fa18	-0.17673528
50	0xbdd5952b	-0.10428842
51	0x3e6f5547	0.23372374
52	0x3e98c4af	0.29837558
53	0x3eafd122	0.34339243
54	0x3ed8fe9d	0.42381755
55	0x3f1917df	0.5980205
56	0x3e5adf0b	0.21374147
57	0xbe19dfb7	-0.15026747
58	0x3e93b10f	0.28846022
59	0x3e328add	0.17435785
60	0x3e3d69f2	0.18497446
61	0xbd00e5f9	-0.03146932
62	0xbd0096fa	-0.031393982
63	0x3eaa6695	0.3328139
64	0x3f73f853	0.9530079
65	0x3f88d97f	1.0691375
66	0x3f9b3e59	1.2128402
67	0x3fa2c395	1.2715937
68	0x3f6d8577	0.92781776
69	0x3f6503da	0.89459
70	0x3f9561e8	1.1670504
71	0x3f5d9631	0.865573
72	0x3faa671c	1.3312716
73	0x3f46b162	0.77614415
74	0x3f6f368d	0.9344261
75	0x3fa25745	1.2682883
76	0x3f87d3f6	1.061156
77	0x3f881bc7	1.0633477
78	0x3f81f7ec	1.0153785
79	0x3fa4701e	1.2846715
80	0x3f88684f	1.0656832
81	0x3f4b9d15	0.79536563
82	0x3f6a69cd	0.9156769
83	0x3fa5f79c	1.2966189
84	0x3f81daaa	1.0144856
85	0x3f82f7dd	1.0231892
86	0x3f8d46cb	1.1037229
87	0x3f8df4ea	1.1090367
88	0x3f988173	1.1914505
89	0x3f58e3c5	0.8472255
90	0x3f9bdad7	1.217616
91	0x3f77131f	0.9651355
92	0x3fcff0a0	1.6245308
93	0x3f951fea	1.1650364
94	0x3fa4b966	1.2869079
95	0x3f8ccd31	1.100012
96	0x3fa4031b	1.2813448
97	0x3f9674a7	1.175435
98	0x3f5a025d	0.85159856
99	0x3f8348dc	1.025661
100	0x3f5be232	0.8589202
101	0x3f7be389	0.98394066
102	0x3f78c949	0.97182137
103	0x3f8633d3	1.0484565
104	0x3f9402c2	1.1563342
105	0x3f853586	1.0406959
106	0x3f927698	1.1442442
107	0x3f8c964d	1.0983368
108	0x3f3d51d2	0.7395297
109	0x3fb6fb45	1.4295431
110	0x3f702e50	0.9382067
111	0x3f96761f	1.1754798
112	0x3fb4ce82	1.4125521
113	0x3f88eaf5	1.0696703
114	0x3f954327	1.1661118
115	0x3f65ed4c	0.8981521
116	0x3f9a9e2c	1.207952
117	0x3f94dc34	1.1629701
118	0x3fbeaf12	1.4897177
119	0x3fb449ec	1.4085059
120	0x3fb0f653	1.3825172
121	0x3f626c5a	0.8844658
122	0x3faea48b	1.3643965
123	0x3f23d87f	0.6400222
124	0x3f95401b	1.1660188
125	0x3f8f524c	1.119699
126	0x3f84389e	1.0329778
127	0x3fbc10ab	1.4692587
128	0xbed5bdb8	-0.41746306
129	0xbe215411	-0.15754725
130	0xbe4372b5	-0.19086726
131	0x3ecd7383	0.4012719
132	0xbea490f4	-0.3214184
133	0xbd470a71	-0.048593942
134	0x3c03e178	0.008049361
135	0xbdada427	-0.08478575
136	0x3e89214b	0.26783213
137	0xbd81dab5	-0.06340543
138	0x3e1bfef4	0.15233976
139	0xbe9a95d1	-0.30192426
140	0xbc04d747	-0.008107967
141	0x3d169a5b	0.0367683
142	0x3d4db1f1	0.050218526
143	0x3d433160	0.04765451
144	0xbdb1738a	-0.086646155
145	0x3d3449a2	0.044015534
146	0xbd268c03	-0.04066087
147	0xbd9659b9	-0.07341332
148	0x3e0799e2	0.13242295
149	0xbe7ca0d1	-0.24670722
150	0xbd10ad56	-0.035321556
151	0xbddde5c7	-0.10834842
152	0x3e0461de	0.12927958
153	0x3dc9dc36	0.09856455
154	0x3e50f06e	0.20404217
155	0x3da29bd8	0.07939881
156	0xbddc6edd	-0.10763333
157	0xbd665145	-0.05622985
158	0xbcff3a1d	-0.03115564
159	0xbea4dad1	-0.32198194
160	0xbd856d94	-0.06515041
161	0x3e9557e1	0.2916861
162	0x3dba943d	0.091103055
163	0x3db89200	0.09012222
164	0xbe83242b	-0.2561353
165	0x3daab89a	0.08335991
166	0x3ca840c0	0.020538688
167	0x3d1cda92	0.038294382
168	0xbc8be50d	-0.017076993
169	0xbde378b5	-0.111070074
170	0xbe12f521	-0.14351322
171	0xbc67d0fe	-0.014148949
172	0x3d83d221	0.06436563
173	0x3e1b21e5	0.15149648
174	0x3d65e723	0.056128632
175	0x3e6eb3b7	0.23310743
176	0x3e0e30d9	0.13885821
177	0x3d4ac00e	0.049499564
178	0xbdc41b2b	-0.095754944
179	0xbd320b90	-0.043468058
180	0xbf160efb	-0.5861661
181	0xbd8b5d30	-0.068048835
182	0x3e31433b	0.17310803
183	0x3e04234d	0.12904091
184	0xbdab3e59	-0.08361501
185	0xbdaa7f41	-0.08325053
186	0xbf4ade63	-0.79245585
187	0x3f07bbbd	0.5302084
188	0x3cb6401c	0.022247367
189	0x3e67b639	0.22628106
190	0x3e1b16ee	0.15145466
191	0x3e97c802	0.2964478
192	0x3e8e4507	0.2778704
193	0xbe260cca	-0.16215816
194	0x3ee650ac	0.44983423
195	0x3e94e7f0	0.29083204
196	0x3e953df3	0.29148826
197	0x3dadbdf5	0.08483497
198	0x3eb9d579	0.3629568
199	0xbe4eb61c	-0.20186657
200	0xbe3d39ec	-0.18479127
201	0x3f01acaa	0.5065409
202	0x3e0da4bd	0.13832374
203	0x3e8a6953	0.2703348
204	0xbe765460	-0.24055624
205	0xbe124d1b	-0.14287226
206	0xbea52c79	-0.32260492
207	0x3e9b510b	0.30335268
208	0x3e6b6119	0.22986259
209	0xbe30a4b9	-0.17250337
210	0x3f20d00a	0.6281744
211	0x3f2aa9be	0.66665256
212	0xbee5bc2b	-0.44870123
213	0xbda5e83d	-0.081009366
214	0x3ec47a90	0.38374758
215	0xbd15fe9d	-0.03661977
216	0xbe21a77c	-0.15786546
217	0xbf2306b0	-0.6368208
218	0x3e1858fa	0.14877692
219	0x3e80cead	0.2515768
220	0x3f1dc3bd	0.616268
221	0xbe6423da	-0.22279301
222	0x3e98483b	0.29742607
223	0x3f3499a5	0.7054694
224	0x3da8c6ac	0.08241019
225	0x3ea21133	0.31653747
226	0x3e084cb1	0.13310505
227	0xbe399282	-0.18122295
228	0x3e0020e7	0.12512551
229	0x3f12d068	0.5734925
230	0xbeb89764	-0.36053002
231	0x3ead5da5	0.33860508
232	0x3f533a0e	0.8251046
233	0x3f0337e4	0.5125716
234	0xbec2ceaa	-0.38048297
235	0xbef195f9	-0.47184733
236	0xbed7b146	-0.42127436
237	0x3d94435c	0.0723941
238	0xbe216de5	-0.15764578
239	0x3ef698fc	0.48163593
240	0xbdefef8c	-0.11715612
241	0xbdc39cfe	-0.09551428
242	0xbd49a519	-0.049229715
243	0xbf14fa60	-0.5819454
244	0x3ccd8579	0.025088059
245	0x3f9e14ab	1.2350057
246	0xbdfdfbc2	-0.124015346
247	0x3e15a62a	0.14614168
248	0x3eaf96ef	0.3429484
249	0xbf4de7b9	-0.80431706
250	0x3e21322d	0.15741797
251	0x3def9b90	0.11699593
252	0x3e5706fd	0.2099876
253	0x3e65055d	0.22365327
254	0x3ea7824b	0.32716593
255	0x3db0d56a	0.086344555

arith.constant10 f4 [64]
0	0xbe29fe36	-0.1660088
1	0xbe165fd7	-0.14684997
2	0xbeecfb91	-0.4628568
3	0xbe89561f	-0.26823518
4	0xbe6d0d2e	-0.23149559
5	0xbe83fefc	-0.25780475
6	0xbf08fb8d	-0.53508836
7	0xbea17fdb	-0.31542858
8	0xbe17f680	-0.14840126
9	0x3e13e641	0.14443304
10	0xbea67e0a	-0.32518035
11	0xbe4cd0e3	-0.20001559
12	0xbf025c08	-0.5092168
13	0xbf17aef9	-0.5925136
14	0xbde570b4	-0.11203137
15	0xbee15b39	-0.4401491
16	0xbd6b9b83	-0.057521354
17	0xbe06c613	-0.13161497
18	0x3e251be2	0.16123918
19	0xbbae3ddf	-0.005317434
20	0x3e4016e6	0.18758735
21	0xbd6d1184	-0.057878032
22	0xbe24b4b9	-0.16084565
23	0xbd8109ed	-0.06300721
24	0x3d3b045a	0.045658447
25	0x3d4c177d	0.049827088
26	0x3e002b26	0.1251646
27	0x3e440e71	0.19146134
28	0x3ec343d8	0.38137698
29	0xbe09d569	-0.13460316
30	0xbd900464	-0.070320874
31	0xbe499543	-0.19685845
32	0xbe711106	-0.2354165
33	0xbeaaed02	-0.33383948
34	0x3e13782f	0.14401315
35	0xbe814f00	-0.25255585
36	0xbdc135e7	-0.09434109
37	0x3c92e780	0.017932653
38	0x3d62c3dc	0.055362567
39	0xbe0bb5e8	-0.1364361
40	0xbee09d47	-0.43869993
41	0xbe464c99	-0.19365157
42	0x3db918d3	0.09037938
43	0xbe5dd23d	-0.21662231
44	0xbdc0c846	-0.09413199
45	0x3e5121c5	0.20423038
46	0xbe2c4979	-0.16824903
47	0xbdd2c131	-0.102907546
48	0xbe07b0d4	-0.13251048
49	0xbe2accad	-0.1667964
50	0xbd60bcaa	-0.054867424
51	0xbdb06141	-0.086123
52	0xbd996f6d	-0.07491956
53	0x3e4e842a	0.20167604
54	0xbe4a02e0	-0.19727659
55	0xbede5ea0	-0.43431568
56	0x3d2d6b2a	0.042338528
57	0xbe589774	-0.21151525
58	0xbe871fd7	-0.2639148
59	0xbe8e6fa3	-0.27819547
60	0x3cea0a7a	0.028569449
61	0xbd331446	-0.043720506
62	0xbe42cf1d	-0.1902432
63	0xbdfb920e	-0.12283717

arith.constant11 f4 [24]
0	0xbb496fc0	-0.0030736774
1	0x3e8adb8f	0.27120635
2	0x3d9d0490	0.07666886
3	0xbd8672f9	-0.06564898
4	0xbe693a81	-0.22776224
5	0xbe30ad8e	-0.17253706
6	0x3df317f5	0.11869804
7	0xbe137a77	-0.14402185
8	0xbda1a957	-0.07893627
9	0x3e324b30	0.17411494
10	0x3e696252	0.22791412
11	0xbe435d92	-0.19078663
12	0xbc678ec9	-0.014133164
13	0xbdded635	-0.108807005
14	0xbd1c0624	-0.038091794
15	0xbe768703	-0.2407494
16	0xbcc8d2f1	-0.024514647
17	0x3e73cc2e	0.23808357
18	0xbe928c1f	-0.2862253
19	0x3cd3cd99	0.025854873
20	0xbe2bba57	-0.16770302
21	0xbe8e5e1b	-0.27806172
22	0xbd9d83d5	-0.076911606
23	0x3f16ea4d	0.58951265

arith.constant25 f4 [256]
0	0xbe4d1991	-0.20029284
1	0x3eb5ad6b	0.3548387
2	0x3eb11207	0.34584066
3	0x3e377a67	0.17917787
4	0x3dde8725	0.108656205
5	0x3e63b666	0.22237548
6	0x3dff0a40	0.12453127
7	0xbe301c9b	-0.17198412
8	0xbd6f9d6f	-0.05849975
9	0x3d7adb93	0.06124456
10	0xbb383391	-0.0028106908
11	0x3eaee9ab	0.3416265
12	0xbe0672ed	-0.13129778
13	0x3db96ba3	0.09053733
14	0x3e3a13c3	0.18171601
15	0x3ed51680	0.4161873
16	0x3ab20c4e	0.0013583989
17	0x3db4939a	0.08817215
18	0x3f1b7556	0.60725915
19	0xbc62f892	-0.013853209
20	0x3e4857d6	0.19564757
21	0x3e132426	0.14369258
22	0x3def275c	0.11677429
23	0xbe8a9542	-0.27067
24	0x3dac52ca	0.08414228
25	0xbe2abc27	-0.16673337
26	0x3ed946b9	0.4243677
27	0x3f0c8ade	0.54899395
28	0x3f430259	0.7617546
29	0x3dcae1b3	0.0990633
30	0x3efcad57	0.49350998
31	0x3ec8d53e	0.3922519
32	0x3ec9d9ab	0.3942388
33	0x3e968143	0.29395494
34	0xbe497663	-0.19674067
35	0xbe48c582	-0.19606593
36	0xbe4296dc	-0.19002861
37	0x3ec2e3eb	0.38064513
38	0xbeb32f13	-0.34996852
39	0x3f23f865	0.64050895
40	0x3eee8cbc	0.46591747
41	0x3d041f9a	0.0322567
42	0x3e15b6ba	0.14620486
43	0x3daff60c	0.085918516
44	0xbdfdd978	-0.123949945
45	0x3e229259	0.1587614
46	0xbe0b732f	-0.13618158
47	0x3ec1d0bf	0.37854573
48	0x3e0df3cd	0.13862534
49	0xbe34fa18	-0.17673528
50	0xbdd5952b	-0.10428842
51	0x3e6f5547	0.23372374
52	0x3e98c4af	0.29837558
53	0x3eafd122	0.34339243
54	0x3ed8fe9d	0.42381755
55	0x3f1917df	0.5980205
56	0x3e5adf0b	0.21374147
57	0xbe19dfb7	-0.15026747
58	0x3e93b10f	0.28846022
59	0x3e328add	0.17435785
60	0x3e3d69f2	0.18497446
61	0xbd00e5f9	-0.03146932
62	0xbd0096fa	-0.031393982
63	0x3eaa6695	0.3328139
64	0x3f73f853	0.9530079
65	0x3f88d97f	1.0691375
66	0x3f9b3e59	1.2128402
67	0x3fa2c395	1.2715937
68	0x3f6d8577	0.92781776
69	0x3f6503da	0.89459
70	0x3f9561e8	1.1670504
71	0x3f5d9631	0.865573
72	0x3faa671c	1.3312716
73	0x3f46b162	0.77614415
74	0x3f6f368d	0.9344261
75	0x3fa25745	1.2682883
76	0x3f87d3f6	1.061156
77	0x3f881bc7	1.0633477
78	0x3f81f7ec	1.0153785
79	0x3fa4701e	1.2846715
80	0x3f88684f	1.0656832
81	0x3f4b9d15	0.79536563
82	0x3f6a69cd	0.9156769
83	0x3fa5f79c	1.2966189
84	0x3f81daaa	1.0144856
85	0x3f82f7dd	1.0231892
86	0x3f8d46cb	1.1037229
87	0x3f8df4ea	1.1090367
88	0x3f988173	1.1914505
89	0x3f58e3c5	0.8472255
90	0x3f9bdad7	1.217616
91	0x3f77131f	0.9651355
92	0x3fcff0a0	1.6245308
93	0x3f951fea	1.1650364
94	0x3fa4b966	1.2869079
95	0x3f8ccd31	1.100012
96	0x3fa4031b	1.2813448
97	0x3f9674a7	1.175435
98	0x3f5a025d	0.85159856
99	0x3f8348dc	1.025661
100	0x3f5be232	0.8589202
101	0x3f7be389	0.98394066
102	0x3f78c949	0.97182137
103	0x3f8633d3	1.0484565
104	0x3f9402c2	1.1563342
105	0x3f853586	1.0406959
106	0x3f927698	1.1442442
107	0x3f8c964d	1.0983368
108	0x3f3d51d2	0.7395297
109	0x3fb6fb45	1.4295431
110	0x3f702e50	0.9382067
111	0x3f96761f	1.1754798
112	0x3fb4ce82	1.4125521
113	0x3f88eaf5	1.0696703
114	0x3f954327	1.1661118
115	0x3f65ed4c	0.8981521
116	0x3f9a9e2c	1.207952
117	0x3f94dc34	1.1629701
118	0x3fbeaf12	1.4897177
119	0x3fb449ec	1.4085059
120	0x3fb0f653	1.3825172
121	0x3f626c5a	0.8844658
122	0x3faea48b	1.3643965
123	0x3f23d87f	0.6400222
124	0x3f95401b	1.1660188
125	0x3f8f524c	1.119699
126	0x3f84389e	1.0329778
127	0x3fbc10ab	1.4692587
128	0xbed5bdb8	-0.41746306
129	0xbe215411	-0.15754725
130	0xbe4372b5	-0.19086726
131	0x3ecd7383	0.4012719
132	0xbea490f4	-0.3214184
133	0xbd470a71	-0.048593942
134	0x3c03e178	0.008049361
135	0xbdada427	-0.08478575
136	0x3e89214b	0.26783213
137	0xbd81dab5	-0.06340543
138	0x3e1bfef4	0.15233976
139	0xbe9a95d1	-0.30192426
140	0xbc04d747	-0.008107967
141	0x3d169a5b	0.0367683
142	0x3d4db1f1	0.050218526
143	0x3d433160	0.04765451
144	0xbdb1738a	-0.086646155
145	0x3d3449a2	0.044015534
146	0xbd268c03	-0.04066087
147	0xbd9659b9	-0.07341332
148	0x3e0799e2	0.13242295
149	0xbe7ca0d1	-0.24670722
150	0xbd10ad56	-0.035321556
151	0xbddde5c7	-0.10834842
152	0x3e0461de	0.12927958
153	0x3dc9dc36	0.09856455
154	0x3e50f06e	0.20404217
155	0x3da29bd8	0.07939881
156	0xbddc6edd	-0.10763333
157	0xbd665145	-0.05622985
158	0xbcff3a1d	-0.03115564
159	0xbea4dad1	-0.32198194
160	0xbd856d94	-0.06515041
161	0x3e9557e1	0.2916861
162	0x3dba943d	0.091103055
163	0x3db89200	0.09012222
164	0xbe83242b	-0.2561353
165	0x3daab89a	0.08335991
166	0x3ca840c0	0.020538688
167	0x3d1cda92	0.038294382
168	0xbc8be50d	-0.017076993
169	0xbde378b5	-0.111070074
170	0xbe12f521	-0.14351322
171	0xbc67d0fe	-0.014148949
172	0x3d83d221	0.06436563
173	0x3e1b21e5	0.15149648
174	0x3d65e723	0.056128632
175	0x3e6eb3b7	0.23310743
176	0x3e0e30d9	0.13885821
177	0x3d4ac00e	0.049499564
178	0xbdc41b2b	-0.095754944
179	0xbd320b90	-0.043468058
180	0xbf160efb	-0.5861661
181	0xbd8b5d30	-0.068048835
182	0x3e31433b	0.17310803
183	0x3e04234d	0.12904091
184	0xbdab3e59	-0.08361501
185	0xbdaa7f41	-0.08325053
186	0xbf4ade63	-0.79245585
187	0x3f07bbbd	0.5302084
188	0x3cb6401c	0.022247367
189	0x3e67b639	0.22628106
190	0x3e1b16ee	0.15145466
191	0x3e97c802	0.2964478
192	0x3e8e4507	0.2778704
193	0xbe260cca	-0.16215816
194	0x3ee650ac	0.44983423
195	0x3e94e7f0	0.29083204
196	0x3e953df3	0.29148826
197	0x3dadbdf5	0.08483497
198	0x3eb9d579	0.3629568
199	0xbe4eb61c	-0.20186657
200	0xbe3d39ec	-0.18479127
201	0x3f01acaa	0.5065409
202	0x3e0da4bd	0.13832374
203	0x3e8a6953	0.2703348
204	0xbe765460	-0.24055624
205	0xbe124d1b	-0.14287226
206	0xbea52c79	-0.32260492
207	0x3e9b510b	0.30335268
208	0x3e6b6119	0.22986259
209	0xbe30a4b9	-0.17250337
210	0x3f20d00a	0.6281744
211	0x3f2aa9be	0.66665256
212	0xbee5bc2b	-0.44870123
213	0xbda5e83d	-0.081009366
214	0x3ec47a90	0.38374758
215	0xbd15fe9d	-0.03661977
216	0xbe21a77c	-0.15786546
217	0xbf2306b0	-0.6368208
218	0x3e1858fa	0.14877692
219	0x3e80cead	0.2515768
220	0x3f1dc3bd	0.616268
221	0xbe6423da	-0.22279301
222	0x3e98483b	0.29742607
223	0x3f3499a5	0.7054694
224	0x3da8c6ac	0.08241019
225	0x3ea21133	0.31653747
226	0x3e084cb1	0.13310505
227	0xbe399282	-0.18122295
228	0x3e0020e7	0.12512551
229	0x3f12d068	0.5734925
230	0xbeb89764	-0.36053002
231	0x3ead5da5	0.33860508
232	0x3f533a0e	0.8251046
233	0x3f0337e4	0.5125716
234	0xbec2ceaa	-0.38048297
235	0xbef195f9	-0.47184733
236	0xbed7b146	-0.42127436
237	0x3d94435c	0.0723941
238	0xbe216de5	-0.15764578
239	0x3ef698fc	0.48163593
240	0xbdefef8c	-0.11715612
241	0xbdc39cfe	-0.09551428
242	0xbd49a519	-0.049229715
243	0xbf14fa60	-0.5819454
244	0x3ccd8579	0.025088059
245	0x3f9e14ab	1.2350057
246	0xbdfdfbc2	-0.124015346
247	0x3e15a62a	0.14614168
248	0x3eaf96ef	0.3429484
249	0xbf4de7b9	-0.80431706
250	0x3e21322d	0.15741797
251	0x3def9b90	0.11699593
252	0x3e5706fd	0.2099876
253	0x3e65055d	0.22365327
254	0x3ea7824b	0.32716593
255	0x3db0d56a	0.086344555

arith.constant26 f4 [256, 99]
0	0xbe35a648	-0.17739213
1	0xbd1219d7	-0.035669174
2	0xbec33f08	-0.38134027
3	0x3b08c5dd	0.0020869889
4	0x3cd1b6c7	0.02559985
5	0xbe165220	-0.14679766
6	0xbdace895	-0.08442799
7	0xbc472752	-0.012155371
8	0xbe939e55	-0.28831735
9	0xbe1a3fc9	-0.15063395
10	0x3df9b381	0.12192441
11	0xbe515b4a	-0.2044498
12	0xbe0898cc	-0.13339537
13	0x3d51945d	0.05116688
14	0xbea12686	-0.31474704
15	0xbdced023	-0.10098293
16	0x3de5ff81	0.11230374
17	0xbec0ce24	-0.37657273
18	0xbde9b5d5	-0.11411635
19	0x3c85b96b	0.016323766
20	0xbe9e8b72	-0.30965763
21	0xbc99a0de	-0.018753465
22	0x3e24ee21	0.16106464
23	0xbeacef43	-0.33776292
24	0xbdc1892d	-0.09449992
25	0x3e284d52	0.16435745
26	0xbe82664a	-0.25468665
27	0xbcc1dd40	-0.02366507
28	0x3ad55635	0.0016276302
29	0xbebbc499	-0.3667343
30	0xbdf08c01	-0.117454536
31	0x3da3cb97	0.07997816
32	0xbe45aa93	-0.1930335
33	0x3e38b38e	0.18037245
34	0x3e217f5c	0.1577124
35	0x39ed8a56	0.0004530723
36	0xbcdf6608	-0.027270332
37	0xbd4c9bfc	-0.049953446
38	0xbf3938df	-0.72352403
39	0x3f1a9be3	0.60394114
40	0xbe5a75b6	-0.21333966
41	0x3d6c166e	0.057638578
42	0xbe968723	-0.29399976
43	0x3ec53a5b	0.38521084
44	0xbf59a35f	-0.8501491
45	0x3f6facb6	0.9362291
46	0x3eff5004	0.49865735
47	0xbc2d7753	-0.010587531
48	0x3e11a3c5	0.1422263
49	0xbe3b6967	-0.18301927
50	0xbf1c235b	-0.6099145
51	0x3f6a6509	0.9156042
52	0x3f294147	0.6611523
53	0xbe12a920	-0.14322329
54	0xbd0a7036	-0.03379842
55	0xbebf8bc4	-0.3741132
56	0xbebd429a	-0.36964875
57	0x3f43eca8	0.76532984
58	0x3f02cf94	0.5109799
59	0xbe2ae0de	-0.16687343
60	0xbe08c410	-0.13356042
61	0xbebf4715	-0.3735892
62	0xbef2b514	-0.47403777
63	0x3f221683	0.633156
64	0x3e8d38d1	0.2758241
65	0xbc912ade	-0.017720636
66	0x3d522c53	0.051311802
67	0xbe7d9b66	-0.24766311
68	0xbef50c3a	-0.4786089
69	0x3ea076af	0.31340548
70	0xbf58aaa6	-0.8463539
71	0x3fd32730	1.6496334
72	0xbe9aca9c	-0.30232704
73	0x3f3cbadf	0.7372264
74	0xbfb5cd68	-1.420331
75	0x3f5cb28d	0.86209947
76	0x3dc3b902	0.09556772
77	0xbeea3d9a	-0.45750123
78	0x3ec47a9c	0.38374794
79	0x3e3ee9d2	0.18643883
80	0xbf9b376f	-1.2126292
81	0x3f29dd22	0.66353047
82	0x3dba75af	0.091044776
83	0xbeb8e4f7	-0.36112186
84	0x3dcac080	0.09899998
85	0x3e9a7d22	0.30173594
86	0xbf7ac61c	-0.9795854
87	0x3f432e4f	0.76242536
88	0x3ea9d180	0.33167648
89	0xbe3f3075	-0.18670829
90	0x3da13141	0.078707226
91	0x3eecbfe3	0.46240148
92	0xbf6b0583	-0.91805285
93	0x3f527cd2	0.8222171
94	0x3e255edc	0.16149467
95	0xbe552d01	-0.20817949
96	0x3d1c2215	0.03811844
97	0x3ec5584d	0.3854393
98	0xbfca5a59	-1.5808822
99	0x3eb57472	0.35440403
100	0x3de2876f	0.11060988
101	0x3ead9187	0.3390009
102	0x3d972fad	0.0738214
103	0x3dcf894b	0.101336084
104	0x3e6f7e3a	0.23387995
105	0x3e2cc796	0.16873011
106	0x3c9b9486	0.01899172
107	0x3e9ad5c9	0.3024123
108	0x3e0aa7bb	0.13540547
109	0x3db4d106	0.088289306
110	0x3e683c87	0.2267934
111	0x3e7e2412	0.24818447
112	0xbc75a20b	-0.014992247
113	0x3e2f5364	0.17121655
114	0x3de5dd26	0.11223821
115	0xbcf7af44	-0.03023494
116	0x3ea31ddb	0.31858715
117	0x3e7edeb5	0.24889643
118	0xbd9cf1b9	-0.076632924
119	0x3e08e1ef	0.13367437
120	0x3cefe49f	0.02928382
121	0x3d9b4ed0	0.07583392
122	0x3ec45cbf	0.3835201
123	0x3e1b55a7	0.15169393
124	0x3d1aa884	0.037758365
125	0xbdbd12ae	-0.092320785
126	0x3e1da555	0.153951
127	0xbd3bf937	-0.045891967
128	0x3e675f72	0.22595003
129	0x3d8383e2	0.06421639
130	0x3df20189	0.11816699
131	0x3e284786	0.16433534
132	0x3d96f07c	0.073700875
133	0xbda6536e	-0.08121382
134	0x3ef5b505	0.4798967
135	0xbdc08172	-0.0939969
136	0x3d6238a2	0.05522979
137	0xbed2c085	-0.41162506
138	0xbcea4dc1	-0.02860153
139	0xbe894896	-0.2681319
140	0x3effc595	0.4995543
141	0xbf0397a7	-0.5140328
142	0xbe3570f4	-0.1771887
143	0xbe2fcac2	-0.1716719
144	0x3ead64f3	0.3386608
145	0x3ebdaf4b	0.370478
146	0x3eaff9fe	0.34370416
147	0xbee10136	-0.43946236
148	0xbd5af103	-0.053452503
149	0x3e49eb8c	0.1971876
150	0x3ef07b35	0.46969
151	0x3efd9449	0.49527195
152	0x3e20ecd0	0.15715337
153	0xbee27adb	-0.44234356
154	0x3db49f60	0.08819461
155	0x3e9957b7	0.29949734
156	0x3eca1c1a	0.39474565
157	0x3f02110e	0.50807273
158	0x3d73daae	0.05953472
159	0xbe8bb337	-0.27285168
160	0x3e261539	0.16219033
161	0x3e4de11a	0.201054
162	0x3ec5a1b6	0.38599938
163	0x3f01083a	0.5040318
164	0x3d8de748	0.06928879
165	0xbebeefea	-0.37292415
166	0x3e651084	0.22369581
167	0x3e09241d	0.13392682
168	0x3eaf7358	0.34267688
169	0xbf8ef5f3	-1.1168808
170	0x3eb82343	0.35964403
171	0xbed3767d	-0.41301337
172	0x3fa900ca	1.3203366
173	0xbee7adfc	-0.45249927
174	0xbd98158e	-0.07425986
175	0x3f1a5943	0.6029245
176	0xbebfe2d2	-0.37477738
177	0xbf4e6e63	-0.80637187
178	0x3e9a4851	0.30133298
179	0xbf342d79	-0.70381886
180	0x3ebe9963	0.372264
181	0xbdf76f71	-0.12081803
182	0xbd53d03d	-0.051712263
183	0xbea85a91	-0.32881597
184	0x3df80858	0.121109664
185	0xbe9a66bc	-0.30156505
186	0x3eb5ca94	0.35506117
187	0xbaadfe23	-0.0013274591
188	0x3de976e9	0.113996334
189	0xbe46302f	-0.19354318
190	0x3d7831ea	0.060594477
191	0xbe862d62	-0.262065
192	0x3e9de159	0.3083599
193	0x3dd48871	0.10377587
194	0xbb82b24b	-0.0039885393
195	0x3d51d129	0.05122486
196	0x3edbe8b4	0.42950976
197	0xbeb5c8a8	-0.3550465
198	0xbea259d4	-0.31709158
199	0x3edf81ec	0.4365381
200	0xbd51a0fa	-0.05117891
201	0xbead9842	-0.33905226
202	0x3ebab578	0.36466575
203	0xbe19689b	-0.1498131
204	0xbe39605c	-0.18103164
205	0x3e720708	0.23635495
206	0xbe3acbe3	-0.18241839
207	0xbd67183b	-0.056419592
208	0x3e9f5140	0.31116676
209	0xbe1a2ca0	-0.15056086
210	0xbe779fb8	-0.24182022
211	0x3ed47cfa	0.415016
212	0xbe8a87e8	-0.27056813
213	0xbe0b768a	-0.13619438
214	0x3ecf4038	0.40478683
215	0xbe8df763	-0.27727804
216	0x3d7d6b00	0.06186962
217	0x3ea53fea	0.32275325
218	0xbde89888	-0.11357218
219	0xbc17980c	-0.009252559
220	0x3e160f30	0.14654231
221	0xbe4d5150	-0.2005055
222	0x3de56f76	0.112029
223	0x3ea3d969	0.32001808
224	0xbeafd2f9	-0.34340647
225	0xbe9daa77	-0.30794117
226	0x3edb0e42	0.42784315
227	0xbd882682	-0.0664797
228	0xbe31698a	-0.17325416
229	0x3e93ba64	0.28853142
230	0xbe0831bc	-0.13300222
231	0x3ef85fa4	0.48510468
232	0xbe3c1eb0	-0.18371081
233	0xbf019e45	-0.50632125
234	0x3df5c4e3	0.12000444
235	0x3d29f12b	0.04148976
236	0xbe6e7ddd	-0.232902
237	0x3f096abf	0.53678507
238	0x3e63e37d	0.22254749
239	0xbeff05fc	-0.49809253
240	0xbebb6dfa	-0.36607343
241	0xbe133e42	-0.14379218
242	0xbe0ae646	-0.13564405
243	0x3dfe40c3	0.12414696
244	0x3f1520e7	0.5825333
245	0xbdb79b16	-0.08965127
246	0xbed03438	-0.4066484
247	0xbe7208bb	-0.23636143
248	0xbcbd2a41	-0.023091437
249	0x3f0bd04d	0.54614717
250	0x3e08d4e7	0.13362466
251	0xbe615186	-0.22003755
252	0xbec89a9a	-0.39180452
253	0xbe021f69	-0.12707295
254	0xbdd8ee79	-0.1059236
255	0x3f1349c4	0.5753443
